Model: "sequential_2"
_________________________________________________________________
Layer (type)                 Output Shape              Param #
=================================================================
conv2d_1 (Conv2D)            (None, 14, 14, 64)        1664
_________________________________________________________________
leaky_re_lu_1 (LeakyReLU)    (None, 14, 14, 64)        0
_________________________________________________________________
dropout_1 (Dropout)          (None, 14, 14, 64)        0
_________________________________________________________________
conv2d_2 (Conv2D)            (None, 7, 7, 128)         204928
_________________________________________________________________
leaky_re_lu_2 (LeakyReLU)    (None, 7, 7, 128)         0
_________________________________________________________________
dropout_2 (Dropout)          (None, 7, 7, 128)         0
_________________________________________________________________
conv2d_3 (Conv2D)            (None, 4, 4, 256)         819456
_________________________________________________________________
leaky_re_lu_3 (LeakyReLU)    (None, 4, 4, 256)         0
_________________________________________________________________
dropout_3 (Dropout)          (None, 4, 4, 256)         0
_________________________________________________________________
conv2d_4 (Conv2D)            (None, 4, 4, 512)         3277312
_________________________________________________________________
leaky_re_lu_4 (LeakyReLU)    (None, 4, 4, 512)         0
_________________________________________________________________
dropout_4 (Dropout)          (None, 4, 4, 512)         0
_________________________________________________________________
flatten_1 (Flatten)          (None, 8192)              0
_________________________________________________________________
dense_1 (Dense)              (None, 1)                 8193
_________________________________________________________________
activation_1 (Activation)    (None, 1)                 0
=================================================================
Total params: 4,311,553
Trainable params: 4,311,553
Non-trainable params: 0
_________________________________________________________________
Model: "sequential_4"
_________________________________________________________________
Layer (type)                 Output Shape              Param #
=================================================================
dense_2 (Dense)              (None, 12544)             1266944
_________________________________________________________________
batch_normalization_1 (Batch (None, 12544)             50176
_________________________________________________________________
activation_2 (Activation)    (None, 12544)             0
_________________________________________________________________
reshape_1 (Reshape)          (None, 7, 7, 256)         0
_________________________________________________________________
dropout_5 (Dropout)          (None, 7, 7, 256)         0
_________________________________________________________________
up_sampling2d_1 (UpSampling2 (None, 14, 14, 256)       0
_________________________________________________________________
conv2d_transpose_1 (Conv2DTr (None, 14, 14, 128)       819328
_________________________________________________________________
batch_normalization_2 (Batch (None, 14, 14, 128)       512
_________________________________________________________________
activation_3 (Activation)    (None, 14, 14, 128)       0
_________________________________________________________________
up_sampling2d_2 (UpSampling2 (None, 28, 28, 128)       0
_________________________________________________________________
conv2d_transpose_2 (Conv2DTr (None, 28, 28, 64)        204864
_________________________________________________________________
batch_normalization_3 (Batch (None, 28, 28, 64)        256
_________________________________________________________________
activation_4 (Activation)    (None, 28, 28, 64)        0
_________________________________________________________________
conv2d_transpose_3 (Conv2DTr (None, 28, 28, 32)        51232
_________________________________________________________________
batch_normalization_4 (Batch (None, 28, 28, 32)        128
_________________________________________________________________
activation_5 (Activation)    (None, 28, 28, 32)        0
_________________________________________________________________
conv2d_transpose_4 (Conv2DTr (None, 28, 28, 1)         801
_________________________________________________________________
activation_6 (Activation)    (None, 28, 28, 1)         0
=================================================================
Total params: 2,394,241
Trainable params: 2,368,705
Non-trainable params: 25,536
_________________________________________________________________
2020-11-05 21:00:15.038384: I tensorflow/stream_executor/platform/default/dso_loader.cc:44] Successfully opened dynamic library cublas64_10.dll
2020-11-05 21:00:18.727508: I tensorflow/stream_executor/platform/default/dso_loader.cc:44] Successfully opened dynamic library cudnn64_7.dll
…
